…
        test_y_channel: False
      ]
      ssim:[
        type: calculate_ssim
        crop_border: 0
        test_y_channel: False
      ]
    ]
  ]
  dist: False
  rank: 0
  world_size: 1
  auto_resume: False
  is_train: False

2025-10-23 07:22:31,605 INFO: Dataset [DoubleJpegImageDataset] - DIV2K_gray is built.
2025-10-23 07:22:31,606 INFO: Number of test images in DIV2K_gray: 5
2025-10-23 07:22:31,821 INFO: Network [OAPT] is created.
2025-10-23 07:22:31,826 INFO: Network: OAPT, with parameters: 12,955,923
2025-10-23 07:22:31,826 INFO: OAPT(
  (prediction): ResNet18_small(
    (conv1): Sequential(
      (0): Conv2d(1, 64, kernel_size=(3, 3), stride=(1, 1), padding=(1, 1), bias=False)
      (1): BatchNorm2d(64, eps=1e-05, momentum=0.1, affine=True, track_running_stats=True)
      (2): ReLU()
    )
    (layer1): Sequential(
      (0): ResBlock_small(
        (left): Sequential(
          (0): Conv2d(64, 64, kernel_size=(1, 1), stride=(1, 1), bias=False)
          (1): Conv2d(64, 64, kernel_size=(3, 3), stride=(1, 1), padding=(1, 1), groups=64, bias=False)
          (2): BatchNorm2d(64, eps=1e-05, momentum=0.1, affine=True, track_running_stats=True)
          (3): ReLU(inplace=True)
          (4): Conv2d(64, 64, kernel_size=(1, 1), stride=(1, 1), bias=False)
          (5): Conv2d(64, 64, kernel_size=(3, 3), stride=(1, 1), padding=(1, 1), groups=64, bias=False)
          (6): BatchNorm2d(64, eps=1e-05, momentum=0.1, affine=True, track_running_stats=True)
        )
        (shortcut): Sequential()
      )
      (1): ResBlock_small(
        (left): Sequential(
          (0): Conv2d(64, 64, kernel_size=(1, 1), stride=(1, 1), bias=False)
          (1): Conv2d(64, 64, kernel_size=(3, 3), stride=(1, 1), padding=(1, 1), groups=64, bias=False)
          (2): BatchNorm2d(64, eps=1e-05, momentum=0.1, affine=True, track_running_stats=True)
          (3): ReLU(inplace=True)
          (4): Conv2d(64, 64, kernel_size=(1, 1), stride=(1, 1), bias=False)
          (5): Conv2d(64, 64, kernel_size=(3, 3), stride=(1, 1), padding=(1, 1), groups=64, bias=False)
          (6): BatchNorm2d(64, eps=1e-05, momentum=0.1, affine=True, track_running_stats=True)
        )
        (shortcut): Sequential()
      )
    )
    (layer2): Sequential(
      (0): ResBlock_small(
        (left): Sequential(
          (0): Conv2d(64, 128, kernel_size=(1, 1), stride=(1, 1), bias=False)
          (1): Conv2d(128, 128, kernel_size=(3, 3), stride=(2, 2), padding=(1, 1), groups=128, bias=False)
          (2): BatchNorm2d(128, eps=1e-05, momentum=0.1, affine=True, track_running_stats=True)
          (3): ReLU(inplace=True)
          (4): Conv2d(128, 128, kernel_size=(1, 1), stride=(1, 1), bias=False)
          (5): Conv2d(128, 128, kernel_size=(3, 3), stride=(1, 1), padding=(1, 1), groups=128, bias=False)
          (6): BatchNorm2d(128, eps=1e-05, momentum=0.1, affine=True, track_running_stats=True)
        )
        (shortcut): Sequential(
          (0): Conv2d(64, 128, kernel_size=(1, 1), stride=(2, 2), bias=False)
          (1): BatchNorm2d(128, eps=1e-05, momentum=0.1, affine=True, track_running_stats=True)
        )
      )
      (1): ResBlock_small(
        (left): Sequential(
          (0): Conv2d(128, 128, kernel_size=(1, 1), stride=(1, 1), bias=False)
          (1): Conv2d(128, 128, kernel_size=(3, 3), stride=(1, 1), padding=(1, 1), groups=128, bias=False)
          (2): BatchNorm2d(128, eps=1e-05, momentum=0.1, affine=True, track_running_stats=True)
          (3): ReLU(inplace=True)
          (4): Conv2d(128, 128, kernel_size=(1, 1), stride=(1, 1), bias=False)
          (5): Conv2d(128, 128, kernel_size=(3, 3), stride=(1, 1), padding=(1, 1), groups=128, bias=False)
          (6): BatchNorm2d(128, eps=1e-05, momentum=0.1, affine=True, track_running_stats=True)
        )
        (shortcut): Sequential()
      )
    )
    (layer3): Sequential(
      (0): ResBlock_small(
        (left): Sequential(
          (0): Conv2d(128, 256, kernel_size=(1, 1), stride=(1, 1), bias=False)
          (1): Conv2d(256, 256, kernel_size=(3, 3), stride=(2, 2), padding=(1, 1), groups=256, bias=False)
          (2): BatchNorm2d(256, eps=1e-05, momentum=0.1, affine=True, track_running_stats=True)
          (3): ReLU(inplace=True)
          (4): Conv2d(256, 256, kernel_size=(1, 1), stride=(1, 1), bias=False)
          (5): Conv2d(256, 256, kernel_size=(3, 3), stride=(1, 1), padding=(1, 1), groups=256, bias=False)
          (6): BatchNorm2d(256, eps=1e-05, momentum=0.1, affine=True, track_running_stats=True)
        )
        (shortcut): Sequential(
          (0): Conv2d(128, 256, kernel_size=(1, 1), stride=(2, 2), bias=False)
          (1): BatchNorm2d(256, eps=1e-05, momentum=0.1, affine=True, track_running_stats=True)
        )
      )
      (1): ResBlock_small(
        (left): Sequential(
          (0): Conv2d(256, 256, kernel_size=(1, 1), stride=(1, 1), bias=False)
          (1): Conv2d(256, 256, kernel_size=(3, 3), stride=(1, 1), padding=(1, 1), groups=256, bias=False)
          (2): BatchNorm2d(256, eps=1e-05, momentum=0.1, affine=True, track_running_stats=True)
          (3): ReLU(inplace=True)
          (4): Conv2d(256, 256, kernel_size=(1, 1), stride=(1, 1), bias=False)
          (5): Conv2d(256, 256, kernel_size=(3, 3), stride=(1, 1), padding=(1, 1), groups=256, bias=False)
          (6): BatchNorm2d(256, eps=1e-05, momentum=0.1, affine=True, track_running_stats=True)
        )
        (shortcut): Sequential()
      )
    )
    (layer4): Sequential(
      (0): ResBlock_small(
        (left): Sequential(
          (0): Conv2d(256, 512, kernel_size=(1, 1), stride=(1, 1), bias=False)
          (1): Conv2d(512, 512, kernel_size=(3, 3), stride=(2, 2), padding=(1, 1), groups=512, bias=False)
          (2): BatchNorm2d(512, eps=1e-05, momentum=0.1, affine=True, track_running_stats=True)
          (3): ReLU(inplace=True)
          (4): Conv2d(512, 512, kernel_size=(1, 1), stride=(1, 1), bias=False)
          (5): Conv2d(512, 512, kernel_size=(3, 3), stride=(1, 1), padding=(1, 1), groups=512, bias=False)
          (6): BatchNorm2d(512, eps=1e-05, momentum=0.1, affine=True, track_running_stats=True)
        )
        (shortcut): Sequential(
          (0): Conv2d(256, 512, kernel_size=(1, 1), stride=(2, 2), bias=False)
          (1): BatchNorm2d(512, eps=1e-05, momentum=0.1, affine=True, track_running_stats=True)
        )
      )
      (1): ResBlock_small(
        (left): Sequential(
          (0): Conv2d(512, 512, kernel_size=(1, 1), stride=(1, 1), bias=False)
          (1): Conv2d(512, 512, kernel_size=(3, 3), stride=(1, 1), padding=(1, 1), groups=512, bias=False)
          (2): BatchNorm2d(512, eps=1e-05, momentum=0.1, affine=True, track_running_stats=True)
          (3): ReLU(inplace=True)
          (4): Conv2d(512, 512, kernel_size=(1, 1), stride=(1, 1), bias=False)
          (5): Conv2d(512, 512, kernel_size=(3, 3), stride=(1, 1), padding=(1, 1), groups=512, bias=False)
          (6): BatchNorm2d(512, eps=1e-05, momentum=0.1, affine=True, track_running_stats=True)
        )
        (shortcut): Sequential()
      )
    )
    (fc): Linear(in_features=512, out_features=64, bias=True)
    (fc2): Linear(in_features=64, out_features=2, bias=True)
    (sig): Sigmoid()
  )
  (restoration): OAPT_gt(
    (conv_first): Conv2d(1, 180, kernel_size=(3, 3), stride=(1, 1), padding=(1, 1))
    (patch_embed): PatchEmbed(
      (norm): LayerNorm((180,), eps=1e-05, elementwise_affine=True)
    )
    (patch_unembed): PatchUnEmbed()
    (pos_drop): Dropout(p=0.0, inplace=False)
    (layers): ModuleList(
      (0): RSTB(
        (residual_group): BasicLayer(
          dim=180, input_resolution=(224, 224), depth=6
          (blocks): ModuleList(
            (0): SwinTransformerBlock(
              (norm1): LayerNorm((180,), eps=1e-05, elementwise_affine=True)
              (attn): WindowAttention(
                dim=180, window_size=(7, 7), num_heads=6
                (qkv): Linear(in_features=180, out_features=540, bias=True)
                (attn_drop): Dropout(p=0.0, inplace=False)
                (proj): Linear(in_features=180, out_features=180, bias=True)
                (proj_drop): Dropout(p=0.0, inplace=False)
                (softmax): Softmax(dim=-1)
              )
              (drop_path): Identity()
              (norm2): LayerNorm((180,), eps=1e-05, elementwise_affine=True)
              (mlp): Mlp(
                (fc1): Linear(in_features=180, out_features=360, bias=True)
                (act): GELU(approximate='none')
                (fc2): Linear(in_features=360, out_features=180, bias=True)
                (drop): Dropout(p=0.0, inplace=False)
              )
            )
            (1): SwinTransformerBlock(
              (norm1): LayerNorm((180,), eps=1e-05, elementwise_affine=True)
              (attn): WindowAttention(
                dim=180, window_size=(7, 7), num_heads=6
                (qkv): Linear(in_features=180, out_features=540, bias=True)
                (attn_drop): Dropout(p=0.0, inplace=False)
                (proj): Linear(in_features=180, out_features=180, bias=True)
                (proj_drop): Dropout(p=0.0, inplace=False)
                (softmax): Softmax(dim=-1)
              )
              (drop_path): DropPath(drop_prob=0.003)
              (norm2): LayerNorm((180,), eps=1e-05, elementwise_affine=True)
              (mlp): Mlp(
                (fc1): Linear(in_features=180, out_features=360, bias=True)
                (act): GELU(approximate='none')
                (fc2): Linear(in_features=360, out_features=180, bias=True)
                (drop): Dropout(p=0.0, inplace=False)
              )
            )
            (2): SwinTransformerBlock(
              (norm1): LayerNorm((180,), eps=1e-05, elementwise_affine=True)
              (attn): WindowAttention(
                dim=180, window_size=(7, 7), num_heads=6
                (qkv): Linear(in_features=180, out_features=540, bias=True)
                (attn_drop): Dropout(p=0.0, inplace=False)
                (proj): Linear(in_features=180, out_features=180, bias=True)
                (proj_drop): Dropout(p=0.0, inplace=False)
                (softmax): Softmax(dim=-1)
              )
              (drop_path): DropPath(drop_prob=0.006)
              (norm2): LayerNorm((180,), eps=1e-05, elementwise_affine=True)
              (mlp): Mlp(
                (fc1): Linear(in_features=180, out_features=360, bias=True)
                (act): GELU(approximate='none')
                (fc2): Linear(in_features=360, out_features=180, bias=True)
                (drop): Dropout(p=0.0, inplace=False)
              )
            )
            (3): SwinTransformerBlock(
              (norm1): LayerNorm((180,), eps=1e-05, elementwise_affine=True)
              (attn): WindowAttention(
                dim=180, window_size=(7, 7), num_heads=6
                (qkv): Linear(in_features=180, out_features=540, bias=True)
                (attn_drop): Dropout(p=0.0, inplace=False)
                (proj): Linear(in_features=180, out_features=180, bias=True)
                (proj_drop): Dropout(p=0.0, inplace=False)
                (softmax): Softmax(dim=-1)
              )
              (drop_path): DropPath(drop_prob=0.009)
              (norm2): LayerNorm((180,), eps=1e-05, elementwise_affine=True)
              (mlp): Mlp(
                (fc1): Linear(in_features=180, out_features=360, bias=True)
                (act): GELU(approximate='none')
                (fc2): Linear(in_features=360, out_features=180, bias=True)
                (drop): Dropout(p=0.0, inplace=False)
              )
            )
            (4): SwinTransformerBlock(
              (norm1): LayerNorm((180,), eps=1e-05, elementwise_affine=True)
              (attn): WindowAttention(
                dim=180, window_size=(7, 7), num_heads=6
                (qkv): Linear(in_features=180, out_features=540, bias=True)
                (attn_drop): Dropout(p=0.0, inplace=False)
                (proj): Linear(in_features=180, out_features=180, bias=True)
                (proj_drop): Dropout(p=0.0, inplace=False)
                (softmax): Softmax(dim=-1)
              )
              (drop_path): DropPath(drop_prob=0.011)
              (norm2): LayerNorm((180,), eps=1e-05, elementwise_affine=True)
              (mlp): Mlp(
                (fc1): Linear(in_features=180, out_features=360, bias=True)
                (act): GELU(approximate='none')
                (fc2): Linear(in_features=360, out_features=180, bias=True)
                (drop): Dropout(p=0.0, inplace=False)
              )
            )
            (5): SwinTransformerBlock(
              (norm1): LayerNorm((180,), eps=1e-05, elementwise_affine=True)
              (attn): WindowAttention(
                dim=180, window_size=(7, 7), num_heads=6
                (qkv): Linear(in_features=180, out_features=540, bias=True)
                (attn_drop): Dropout(p=0.0, inplace=False)
                (proj): Linear(in_features=180, out_features=180, bias=True)
                (proj_drop): Dropout(p=0.0, inplace=False)
                (softmax): Softmax(dim=-1)
              )
              (drop_path): DropPath(drop_prob=0.014)
              (norm2): LayerNorm((180,), eps=1e-05, elementwise_affine=True)
              (mlp): Mlp(
                (fc1): Linear(in_features=180, out_features=360, bias=True)
                (act): GELU(approximate='none')
                (fc2): Linear(in_features=360, out_features=180, bias=True)
                (drop): Dropout(p=0.0, inplace=False)
              )
            )
          )
        )
        (conv): Conv2d(180, 180, kernel_size=(3, 3), stride=(1, 1), padding=(1, 1))
        (patch_embed): PatchEmbed()
        (patch_unembed): PatchUnEmbed()
      )
      (1): RSTB(
        (residual_group): BasicLayer(
          dim=180, input_resolution=(224, 224), depth=6
          (blocks): ModuleList(
            (0): SwinTransformerBlock(
              (norm1): LayerNorm((180,), eps=1e-05, elementwise_affine=True)
              (attn): WindowAttention(
                dim=180, window_size=(7, 7), num_heads=6
                (qkv): Linear(in_features=180, out_features=540, bias=True)
                (attn_drop): Dropout(p=0.0, inplace=False)
                (proj): Linear(in_features=180, out_features=180, bias=True)
                (proj_drop): Dropout(p=0.0, inplace=False)
                (softmax): Softmax(dim=-1)
              )
              (drop_path): DropPath(drop_prob=0.017)
              (norm2): LayerNorm((180,), eps=1e-05, elementwise_affine=True)
              (mlp): Mlp(
                (fc1): Linear(in_features=180, out_features=360, bias=True)
                (act): GELU(approximate='none')
                (fc2): Linear(in_features=360, out_features=180, bias=True)
                (drop): Dropout(p=0.0, inplace=False)
              )
            )
            (1): SwinTransformerBlock(
              (norm1): LayerNorm((180,), eps=1e-05, elementwise_affine=True)
              (attn): WindowAttention(
                dim=180, window_size=(7, 7), num_heads=6
                (qkv): Linear(in_features=180, out_features=540, bias=True)
                (attn_drop): Dropout(p=0.0, inplace=False)
                (proj): Linear(in_features=180, out_features=180, bias=True)
                (proj_drop): Dropout(p=0.0, inplace=False)
                (softmax): Softmax(dim=-1)
              )
              (drop_path): DropPath(drop_prob=0.020)
              (norm2): LayerNorm((180,), eps=1e-05, elementwise_affine=True)
              (mlp): Mlp(
                (fc1): Linear(in_features=180, out_features=360, bias=True)
                (act): GELU(approximate='none')
                (fc2): Linear(in_features=360, out_features=180, bias=True)
                (drop): Dropout(p=0.0, inplace=False)
              )
            )
            (2): SwinTransformerBlock(
              (norm1): LayerNorm((180,), eps=1e-05, elementwise_affine=True)
              (attn): WindowAttention(
                dim=180, window_size=(7, 7), num_heads=6
                (qkv): Linear(in_features=180, out_features=540, bias=True)
                (attn_drop): Dropout(p=0.0, inplace=False)
                (proj): Linear(in_features=180, out_features=180, bias=True)
                (proj_drop): Dropout(p=0.0, inplace=False)
                (softmax): Softmax(dim=-1)
              )
              (drop_path): DropPath(drop_prob=0.023)
              (norm2): LayerNorm((180,), eps=1e-05, elementwise_affine=True)
              (mlp): Mlp(
                (fc1): Linear(in_features=180, out_features=360, bias=True)
                (act): GELU(approximate='none')
                (fc2): Linear(in_features=360, out_features=180, bias=True)
                (drop): Dropout(p=0.0, inplace=False)
              )
            )
            (3): SwinTransformerBlock(
              (norm1): LayerNorm((180,), eps=1e-05, elementwise_affine=True)
              (attn): WindowAttention(
                dim=180, window_size=(7, 7), num_heads=6
                (qkv): Linear(in_features=180, out_features=540, bias=True)
                (attn_drop): Dropout(p=0.0, inplace=False)
                (proj): Linear(in_features=180, out_features=180, bias=True)
                (proj_drop): Dropout(p=0.0, inplace=False)
                (softmax): Softmax(dim=-1)
              )
              (drop_path): DropPath(drop_prob=0.026)
              (norm2): LayerNorm((180,), eps=1e-05, elementwise_affine=True)
              (mlp): Mlp(
                (fc1): Linear(in_features=180, out_features=360, bias=True)
                (act): GELU(approximate='none')
                (fc2): Linear(in_features=360, out_features=180, bias=True)
                (drop): Dropout(p=0.0, inplace=False)
              )
            )
            (4): SwinTransformerBlock(
              (norm1): LayerNorm((180,), eps=1e-05, elementwise_affine=True)
              (attn): WindowAttention(
                dim=180, window_size=(7, 7), num_heads=6
                (qkv): Linear(in_features=180, out_features=540, bias=True)
                (attn_drop): Dropout(p=0.0, inplace=False)
                (proj): Linear(in_features=180, out_features=180, bias=True)
                (proj_drop): Dropout(p=0.0, inplace=False)
                (softmax): Softmax(dim=-1)
              )
              (drop_path): DropPath(drop_prob=0.029)
              (norm2): LayerNorm((180,), eps=1e-05, elementwise_affine=True)
              (mlp): Mlp(
                (fc1): Linear(in_features=180, out_features=360, bias=True)
                (act): GELU(approximate='none')
                (fc2): Linear(in_features=360, out_features=180, bias=True)
                (drop): Dropout(p=0.0, inplace=False)
              )
            )
            (5): SwinTransformerBlock(
              (norm1): LayerNorm((180,), eps=1e-05, elementwise_affine=True)
              (attn): WindowAttention(
                dim=180, window_size=(7, 7), num_heads=6
                (qkv): Linear(in_features=180, out_features=540, bias=True)
                (attn_drop): Dropout(p=0.0, inplace=False)
                (proj): Linear(in_features=180, out_features=180, bias=True)
                (proj_drop): Dropout(p=0.0, inplace=False)
                (softmax): Softmax(dim=-1)
              )
              (drop_path): DropPath(drop_prob=0.031)
              (norm2): LayerNorm((180,), eps=1e-05, elementwise_affine=True)
              (mlp): Mlp(
                (fc1): Linear(in_features=180, out_features=360, bias=True)
                (act): GELU(approximate='none')
                (fc2): Linear(in_features=360, out_features=180, bias=True)
                (drop): Dropout(p=0.0, inplace=False)
              )
            )
          )
        )
        (conv): Conv2d(180, 180, kernel_size=(3, 3), stride=(1, 1), padding=(1, 1))
        (patch_embed): PatchEmbed()
        (patch_unembed): PatchUnEmbed()
      )
      (2): RSTB(
        (residual_group): BasicLayer(
          dim=180, input_resolution=(224, 224), depth=6
          (blocks): ModuleList(
            (0): SwinTransformerBlock(
              (norm1): LayerNorm((180,), eps=1e-05, elementwise_affine=True)
              (attn): WindowAttention(
                dim=180, window_size=(7, 7), num_heads=6
                (qkv): Linear(in_features=180, out_features=540, bias=True)
                (attn_drop): Dropout(p=0.0, inplace=False)
                (proj): Linear(in_features=180, out_features=180, bias=True)
                (proj_drop): Dropout(p=0.0, inplace=False)
                (softmax): Softmax(dim=-1)
              )
              (drop_path): DropPath(drop_prob=0.034)
              (norm2): LayerNorm((180,), eps=1e-05, elementwise_affine=True)
              (mlp): Mlp(
                (fc1): Linear(in_features=180, out_features=360, bias=True)
                (act): GELU(approximate='none')
                (fc2): Linear(in_features=360, out_features=180, bias=True)
                (drop): Dropout(p=0.0, inplace=False)
              )
            )
            (1): SwinTransformerBlock(
              (norm1): LayerNorm((180,), eps=1e-05, elementwise_affine=True)
              (attn): WindowAttention(
                dim=180, window_size=(7, 7), num_heads=6
                (qkv): Linear(in_features=180, out_features=540, bias=True)
                (attn_drop): Dropout(p=0.0, inplace=False)
                (proj): Linear(in_features=180, out_features=180, bias=True)
                (proj_drop): Dropout(p=0.0, inplace=False)
                (softmax): Softmax(dim=-1)
              )
              (drop_path): DropPath(drop_prob=0.037)
              (norm2): LayerNorm((180,), eps=1e-05, elementwise_affine=True)
              (mlp): Mlp(
                (fc1): Linear(in_features=180, out_features=360, bias=True)
                (act): GELU(approximate='none')
                (fc2): Linear(in_features=360, out_features=180, bias=True)
                (drop): Dropout(p=0.0, inplace=False)
              )
            )
            (2): SwinTransformerBlock(
              (norm1): LayerNorm((180,), eps=1e-05, elementwise_affine=True)
              (attn): WindowAttention(
                dim=180, window_size=(7, 7), num_heads=6
                (qkv): Linear(in_features=180, out_features=540, bias=True)
                (attn_drop): Dropout(p=0.0, inplace=False)
                (proj): Linear(in_features=180, out_features=180, bias=True)
                (proj_drop): Dropout(p=0.0, inplace=False)
                (softmax): Softmax(dim=-1)
              )
              (drop_path): DropPath(drop_prob=0.040)
              (norm2): LayerNorm((180,), eps=1e-05, elementwise_affine=True)
              (mlp): Mlp(
                (fc1): Linear(in_features=180, out_features=360, bias=True)
                (act): GELU(approximate='none')
                (fc2): Linear(in_features=360, out_features=180, bias=True)
                (drop): Dropout(p=0.0, inplace=False)
              )
            )
            (3): SwinTransformerBlock(
              (norm1): LayerNorm((180,), eps=1e-05, elementwise_affine=True)
              (attn): WindowAttention(
                dim=180, window_size=(7, 7), num_heads=6
                (qkv): Linear(in_features=180, out_features=540, bias=True)
                (attn_drop): Dropout(p=0.0, inplace=False)
                (proj): Linear(in_features=180, out_features=180, bias=True)
                (proj_drop): Dropout(p=0.0, inplace=False)
                (softmax): Softmax(dim=-1)
              )
              (drop_path): DropPath(drop_prob=0.043)
              (norm2): LayerNorm((180,), eps=1e-05, elementwise_affine=True)
              (mlp): Mlp(
                (fc1): Linear(in_features=180, out_features=360, bias=True)
                (act): GELU(approximate='none')
                (fc2): Linear(in_features=360, out_features=180, bias=True)
                (drop): Dropout(p=0.0, inplace=False)
              )
            )
            (4): SwinTransformerBlock(
              (norm1): LayerNorm((180,), eps=1e-05, elementwise_affine=True)
              (attn): WindowAttention(
                dim=180, window_size=(7, 7), num_heads=6
                (qkv): Linear(in_features=180, out_features=540, bias=True)
                (attn_drop): Dropout(p=0.0, inplace=False)
                (proj): Linear(in_features=180, out_features=180, bias=True)
                (proj_drop): Dropout(p=0.0, inplace=False)
                (softmax): Softmax(dim=-1)
              )
              (drop_path): DropPath(drop_prob=0.046)
              (norm2): LayerNorm((180,), eps=1e-05, elementwise_affine=True)
              (mlp): Mlp(
                (fc1): Linear(in_features=180, out_features=360, bias=True)
                (act): GELU(approximate='none')
                (fc2): Linear(in_features=360, out_features=180, bias=True)
                (drop): Dropout(p=0.0, inplace=False)
              )
            )
            (5): SwinTransformerBlock(
              (norm1): LayerNorm((180,), eps=1e-05, elementwise_affine=True)
              (attn): WindowAttention(
                dim=180, window_size=(7, 7), num_heads=6
                (qkv): Linear(in_features=180, out_features=540, bias=True)
                (attn_drop): Dropout(p=0.0, inplace=False)
                (proj): Linear(in_features=180, out_features=180, bias=True)
                (proj_drop): Dropout(p=0.0, inplace=False)
                (softmax): Softmax(dim=-1)
              )
              (drop_path): DropPath(drop_prob=0.049)
              (norm2): LayerNorm((180,), eps=1e-05, elementwise_affine=True)
              (mlp): Mlp(
                (fc1): Linear(in_features=180, out_features=360, bias=True)
                (act): GELU(approximate='none')
                (fc2): Linear(in_features=360, out_features=180, bias=True)
                (drop): Dropout(p=0.0, inplace=False)
              )
            )
          )
        )
        (conv): Conv2d(180, 180, kernel_size=(3, 3), stride=(1, 1), padding=(1, 1))
        (patch_embed): PatchEmbed()
        (patch_unembed): PatchUnEmbed()
      )
      (3): RSTB(
        (residual_group): BasicLayer(
          dim=180, input_resolution=(224, 224), depth=6
          (blocks): ModuleList(
            (0): SwinTransformerBlock(
              (norm1): LayerNorm((180,), eps=1e-05, elementwise_affine=True)
              (attn): WindowAttention(
                dim=180, window_size=(7, 7), num_heads=6
                (qkv): Linear(in_features=180, out_features=540, bias=True)
                (attn_drop): Dropout(p=0.0, inplace=False)
                (proj): Linear(in_features=180, out_features=180, bias=True)
                (proj_drop): Dropout(p=0.0, inplace=False)
                (softmax): Softmax(dim=-1)
              )
              (drop_path): DropPath(drop_prob=0.051)
              (norm2): LayerNorm((180,), eps=1e-05, elementwise_affine=True)
              (mlp): Mlp(
                (fc1): Linear(in_features=180, out_features=360, bias=True)
                (act): GELU(approximate='none')
                (fc2): Linear(in_features=360, out_features=180, bias=True)
                (drop): Dropout(p=0.0, inplace=False)
              )
            )
            (1): SwinTransformerBlock(
              (norm1): LayerNorm((180,), eps=1e-05, elementwise_affine=True)
              (attn): WindowAttention(
                dim=180, window_size=(7, 7), num_heads=6
                (qkv): Linear(in_features=180, out_features=540, bias=True)
                (attn_drop): Dropout(p=0.0, inplace=False)
                (proj): Linear(in_features=180, out_features=180, bias=True)
                (proj_drop): Dropout(p=0.0, inplace=False)
                (softmax): Softmax(dim=-1)
              )
              (drop_path): DropPath(drop_prob=0.054)
              (norm2): LayerNorm((180,), eps=1e-05, elementwise_affine=True)
              (mlp): Mlp(
                (fc1): Linear(in_features=180, out_features=360, bias=True)
                (act): GELU(approximate='none')
                (fc2): Linear(in_features=360, out_features=180, bias=True)
                (drop): Dropout(p=0.0, inplace=False)
              )
            )
            (2): SwinTransformerBlock(
              (norm1): LayerNorm((180,), eps=1e-05, elementwise_affine=True)
              (attn): WindowAttention(
                dim=180, window_size=(7, 7), num_heads=6
                (qkv): Linear(in_features=180, out_features=540, bias=True)
                (attn_drop): Dropout(p=0.0, inplace=False)
                (proj): Linear(in_features=180, out_features=180, bias=True)
                (proj_drop): Dropout(p=0.0, inplace=False)
                (softmax): Softmax(dim=-1)
              )
              (drop_path): DropPath(drop_prob=0.057)
              (norm2): LayerNorm((180,), eps=1e-05, elementwise_affine=True)
              (mlp): Mlp(
                (fc1): Linear(in_features=180, out_features=360, bias=True)
                (act): GELU(approximate='none')
                (fc2): Linear(in_features=360, out_features=180, bias=True)
                (drop): Dropout(p=0.0, inplace=False)
              )
            )
            (3): SwinTransformerBlock(
              (norm1): LayerNorm((180,), eps=1e-05, elementwise_affine=True)
              (attn): WindowAttention(
                dim=180, window_size=(7, 7), num_heads=6
                (qkv): Linear(in_features=180, out_features=540, bias=True)
                (attn_drop): Dropout(p=0.0, inplace=False)
                (proj): Linear(in_features=180, out_features=180, bias=True)
                (proj_drop): Dropout(p=0.0, inplace=False)
                (softmax): Softmax(dim=-1)
              )
              (drop_path): DropPath(drop_prob=0.060)
              (norm2): LayerNorm((180,), eps=1e-05, elementwise_affine=True)
              (mlp): Mlp(
                (fc1): Linear(in_features=180, out_features=360, bias=True)
                (act): GELU(approximate='none')
                (fc2): Linear(in_features=360, out_features=180, bias=True)
                (drop): Dropout(p=0.0, inplace=False)
              )
            )
            (4): SwinTransformerBlock(
              (norm1): LayerNorm((180,), eps=1e-05, elementwise_affine=True)
              (attn): WindowAttention(
                dim=180, window_size=(7, 7), num_heads=6
                (qkv): Linear(in_features=180, out_features=540, bias=True)
                (attn_drop): Dropout(p=0.0, inplace=False)
                (proj): Linear(in_features=180, out_features=180, bias=True)
                (proj_drop): Dropout(p=0.0, inplace=False)
                (softmax): Softmax(dim=-1)
              )
              (drop_path): DropPath(drop_prob=0.063)
              (norm2): LayerNorm((180,), eps=1e-05, elementwise_affine=True)
              (mlp): Mlp(
                (fc1): Linear(in_features=180, out_features=360, bias=True)
                (act): GELU(approximate='none')
                (fc2): Linear(in_features=360, out_features=180, bias=True)
                (drop): Dropout(p=0.0, inplace=False)
              )
            )
            (5): SwinTransformerBlock(
              (norm1): LayerNorm((180,), eps=1e-05, elementwise_affine=True)
              (attn): WindowAttention(
                dim=180, window_size=(7, 7), num_heads=6
                (qkv): Linear(in_features=180, out_features=540, bias=True)
                (attn_drop): Dropout(p=0.0, inplace=False)
                (proj): Linear(in_features=180, out_features=180, bias=True)
                (proj_drop): Dropout(p=0.0, inplace=False)
                (softmax): Softmax(dim=-1)
              )
              (drop_path): DropPath(drop_prob=0.066)
              (norm2): LayerNorm((180,), eps=1e-05, elementwise_affine=True)
              (mlp): Mlp(
                (fc1): Linear(in_features=180, out_features=360, bias=True)
                (act): GELU(approximate='none')
                (fc2): Linear(in_features=360, out_features=180, bias=True)
                (drop): Dropout(p=0.0, inplace=False)
              )
            )
          )
        )
        (conv): Conv2d(180, 180, kernel_size=(3, 3), stride=(1, 1), padding=(1, 1))
        (patch_embed): PatchEmbed()
        (patch_unembed): PatchUnEmbed()
      )
      (4): RSTB(
        (residual_group): BasicLayer(
          dim=180, input_resolution=(224, 224), depth=6
          (blocks): ModuleList(
            (0): SwinTransformerBlock(
              (norm1): LayerNorm((180,), eps=1e-05, elementwise_affine=True)
              (attn): WindowAttention(
                dim=180, window_size=(7, 7), num_heads=6
                (qkv): Linear(in_features=180, out_features=540, bias=True)
                (attn_drop): Dropout(p=0.0, inplace=False)
                (proj): Linear(in_features=180, out_features=180, bias=True)
                (proj_drop): Dropout(p=0.0, inplace=False)
                (softmax): Softmax(dim=-1)
              )
              (drop_path): DropPath(drop_prob=0.069)
              (norm2): LayerNorm((180,), eps=1e-05, elementwise_affine=True)
              (mlp): Mlp(
                (fc1): Linear(in_features=180, out_features=360, bias=True)
                (act): GELU(approximate='none')
                (fc2): Linear(in_features=360, out_features=180, bias=True)
                (drop): Dropout(p=0.0, inplace=False)
              )
            )
            (1): SwinTransformerBlock(
              (norm1): LayerNorm((180,), eps=1e-05, elementwise_affine=True)
              (attn): WindowAttention(
                dim=180, window_size=(7, 7), num_heads=6
                (qkv): Linear(in_features=180, out_features=540, bias=True)
                (attn_drop): Dropout(p=0.0, inplace=False)
                (proj): Linear(in_features=180, out_features=180, bias=True)
                (proj_drop): Dropout(p=0.0, inplace=False)
                (softmax): Softmax(dim=-1)
              )
              (drop_path): DropPath(drop_prob=0.071)
              (norm2): LayerNorm((180,), eps=1e-05, elementwise_affine=True)
              (mlp): Mlp(
                (fc1): Linear(in_features=180, out_features=360, bias=True)
                (act): GELU(approximate='none')
                (fc2): Linear(in_features=360, out_features=180, bias=True)
                (drop): Dropout(p=0.0, inplace=False)
              )
            )
            (2): SwinTransformerBlock(
              (norm1): LayerNorm((180,), eps=1e-05, elementwise_affine=True)
              (attn): WindowAttention(
                dim=180, window_size=(7, 7), num_heads=6
                (qkv): Linear(in_features=180, out_features=540, bias=True)
                (attn_drop): Dropout(p=0.0, inplace=False)
                (proj): Linear(in_features=180, out_features=180, bias=True)
                (proj_drop): Dropout(p=0.0, inplace=False)
                (softmax): Softmax(dim=-1)
              )
              (drop_path): DropPath(drop_prob=0.074)
              (norm2): LayerNorm((180,), eps=1e-05, elementwise_affine=True)
              (mlp): Mlp(
                (fc1): Linear(in_features=180, out_features=360, bias=True)
                (act): GELU(approximate='none')
                (fc2): Linear(in_features=360, out_features=180, bias=True)
                (drop): Dropout(p=0.0, inplace=False)
              )
            )
            (3): SwinTransformerBlock(
              (norm1): LayerNorm((180,), eps=1e-05, elementwise_affine=True)
              (attn): WindowAttention(
                dim=180, window_size=(7, 7), num_heads=6
                (qkv): Linear(in_features=180, out_features=540, bias=True)
                (attn_drop): Dropout(p=0.0, inplace=False)
                (proj): Linear(in_features=180, out_features=180, bias=True)
                (proj_drop): Dropout(p=0.0, inplace=False)
                (softmax): Softmax(dim=-1)
              )
              (drop_path): DropPath(drop_prob=0.077)
              (norm2): LayerNorm((180,), eps=1e-05, elementwise_affine=True)
              (mlp): Mlp(
                (fc1): Linear(in_features=180, out_features=360, bias=True)
                (act): GELU(approximate='none')
                (fc2): Linear(in_features=360, out_features=180, bias=True)
                (drop): Dropout(p=0.0, inplace=False)
              )
            )
            (4): SwinTransformerBlock(
              (norm1): LayerNorm((180,), eps=1e-05, elementwise_affine=True)
              (attn): WindowAttention(
                dim=180, window_size=(7, 7), num_heads=6
                (qkv): Linear(in_features=180, out_features=540, bias=True)
                (attn_drop): Dropout(p=0.0, inplace=False)
                (proj): Linear(in_features=180, out_features=180, bias=True)
                (proj_drop): Dropout(p=0.0, inplace=False)
                (softmax): Softmax(dim=-1)
              )
              (drop_path): DropPath(drop_prob=0.080)
              (norm2): LayerNorm((180,), eps=1e-05, elementwise_affine=True)
              (mlp): Mlp(
                (fc1): Linear(in_features=180, out_features=360, bias=True)
                (act): GELU(approximate='none')
                (fc2): Linear(in_features=360, out_features=180, bias=True)
                (drop): Dropout(p=0.0, inplace=False)
              )
            )
            (5): SwinTransformerBlock(
              (norm1): LayerNorm((180,), eps=1e-05, elementwise_affine=True)
              (attn): WindowAttention(
                dim=180, window_size=(7, 7), num_heads=6
                (qkv): Linear(in_features=180, out_features=540, bias=True)
                (attn_drop): Dropout(p=0.0, inplace=False)
                (proj): Linear(in_features=180, out_features=180, bias=True)
                (proj_drop): Dropout(p=0.0, inplace=False)
                (softmax): Softmax(dim=-1)
              )
              (drop_path): DropPath(drop_prob=0.083)
              (norm2): LayerNorm((180,), eps=1e-05, elementwise_affine=True)
              (mlp): Mlp(
                (fc1): Linear(in_features=180, out_features=360, bias=True)
                (act): GELU(approximate='none')
                (fc2): Linear(in_features=360, out_features=180, bias=True)
                (drop): Dropout(p=0.0, inplace=False)
              )
            )
          )
        )
        (conv): Conv2d(180, 180, kernel_size=(3, 3), stride=(1, 1), padding=(1, 1))
        (patch_embed): PatchEmbed()
        (patch_unembed): PatchUnEmbed()
      )
      (5): RSTB(
        (residual_group): BasicLayer(
          dim=180, input_resolution=(224, 224), depth=6
          (blocks): ModuleList(
            (0): SwinTransformerBlock(
              (norm1): LayerNorm((180,), eps=1e-05, elementwise_affine=True)
              (attn): WindowAttention(
                dim=180, window_size=(7, 7), num_heads=6
                (qkv): Linear(in_features=180, out_features=540, bias=True)
                (attn_drop): Dropout(p=0.0, inplace=False)
                (proj): Linear(in_features=180, out_features=180, bias=True)
                (proj_drop): Dropout(p=0.0, inplace=False)
                (softmax): Softmax(dim=-1)
              )
              (drop_path): DropPath(drop_prob=0.086)
              (norm2): LayerNorm((180,), eps=1e-05, elementwise_affine=True)
              (mlp): Mlp(
                (fc1): Linear(in_features=180, out_features=360, bias=True)
                (act): GELU(approximate='none')
                (fc2): Linear(in_features=360, out_features=180, bias=True)
                (drop): Dropout(p=0.0, inplace=False)
              )
            )
            (1): SwinTransformerBlock(
              (norm1): LayerNorm((180,), eps=1e-05, elementwise_affine=True)
              (attn): WindowAttention(
                dim=180, window_size=(7, 7), num_heads=6
                (qkv): Linear(in_features=180, out_features=540, bias=True)
                (attn_drop): Dropout(p=0.0, inplace=False)
                (proj): Linear(in_features=180, out_features=180, bias=True)
                (proj_drop): Dropout(p=0.0, inplace=False)
                (softmax): Softmax(dim=-1)
              )
              (drop_path): DropPath(drop_prob=0.089)
              (norm2): LayerNorm((180,), eps=1e-05, elementwise_affine=True)
              (mlp): Mlp(
                (fc1): Linear(in_features=180, out_features=360, bias=True)
                (act): GELU(approximate='none')
                (fc2): Linear(in_features=360, out_features=180, bias=True)
                (drop): Dropout(p=0.0, inplace=False)
              )
            )
            (2): SwinTransformerBlock(
              (norm1): LayerNorm((180,), eps=1e-05, elementwise_affine=True)
              (attn): WindowAttention(
                dim=180, window_size=(7, 7), num_heads=6
                (qkv): Linear(in_features=180, out_features=540, bias=True)
                (attn_drop): Dropout(p=0.0, inplace=False)
                (proj): Linear(in_features=180, out_features=180, bias=True)
                (proj_drop): Dropout(p=0.0, inplace=False)
                (softmax): Softmax(dim=-1)
              )
              (drop_path): DropPath(drop_prob=0.091)
              (norm2): LayerNorm((180,), eps=1e-05, elementwise_affine=True)
              (mlp): Mlp(
                (fc1): Linear(in_features=180, out_features=360, bias=True)
                (act): GELU(approximate='none')
                (fc2): Linear(in_features=360, out_features=180, bias=True)
                (drop): Dropout(p=0.0, inplace=False)
              )
            )
            (3): SwinTransformerBlock(
              (norm1): LayerNorm((180,), eps=1e-05, elementwise_affine=True)
              (attn): WindowAttention(
                dim=180, window_size=(7, 7), num_heads=6
                (qkv): Linear(in_features=180, out_features=540, bias=True)
                (attn_drop): Dropout(p=0.0, inplace=False)
                (proj): Linear(in_features=180, out_features=180, bias=True)
                (proj_drop): Dropout(p=0.0, inplace=False)
                (softmax): Softmax(dim=-1)
              )
              (drop_path): DropPath(drop_prob=0.094)
              (norm2): LayerNorm((180,), eps=1e-05, elementwise_affine=True)
              (mlp): Mlp(
                (fc1): Linear(in_features=180, out_features=360, bias=True)
                (act): GELU(approximate='none')
                (fc2): Linear(in_features=360, out_features=180, bias=True)
                (drop): Dropout(p=0.0, inplace=False)
              )
            )
            (4): SwinTransformerBlock(
              (norm1): LayerNorm((180,), eps=1e-05, elementwise_affine=True)
              (attn): WindowAttention(
                dim=180, window_size=(7, 7), num_heads=6
                (qkv): Linear(in_features=180, out_features=540, bias=True)
                (attn_drop): Dropout(p=0.0, inplace=False)
                (proj): Linear(in_features=180, out_features=180, bias=True)
                (proj_drop): Dropout(p=0.0, inplace=False)
                (softmax): Softmax(dim=-1)
              )
              (drop_path): DropPath(drop_prob=0.097)
              (norm2): LayerNorm((180,), eps=1e-05, elementwise_affine=True)
              (mlp): Mlp(
                (fc1): Linear(in_features=180, out_features=360, bias=True)
                (act): GELU(approximate='none')
                (fc2): Linear(in_features=360, out_features=180, bias=True)
                (drop): Dropout(p=0.0, inplace=False)
              )
            )
            (5): SwinTransformerBlock(
              (norm1): LayerNorm((180,), eps=1e-05, elementwise_affine=True)
              (attn): WindowAttention(
                dim=180, window_size=(7, 7), num_heads=6
                (qkv): Linear(in_features=180, out_features=540, bias=True)
                (attn_drop): Dropout(p=0.0, inplace=False)
                (proj): Linear(in_features=180, out_features=180, bias=True)
                (proj_drop): Dropout(p=0.0, inplace=False)
                (softmax): Softmax(dim=-1)
              )
              (drop_path): DropPath(drop_prob=0.100)
              (norm2): LayerNorm((180,), eps=1e-05, elementwise_affine=True)
              (mlp): Mlp(
                (fc1): Linear(in_features=180, out_features=360, bias=True)
                (act): GELU(approximate='none')
                (fc2): Linear(in_features=360, out_features=180, bias=True)
                (drop): Dropout(p=0.0, inplace=False)
              )
            )
          )
        )
        (conv): Conv2d(180, 180, kernel_size=(3, 3), stride=(1, 1), padding=(1, 1))
        (patch_embed): PatchEmbed()
        (patch_unembed): PatchUnEmbed()
      )
    )
    (norm): LayerNorm((180,), eps=1e-05, elementwise_affine=True)
    (conv_after_body): Conv2d(180, 180, kernel_size=(3, 3), stride=(1, 1), padding=(1, 1))
    (conv_last): Conv2d(180, 1, kernel_size=(3, 3), stride=(1, 1), padding=(1, 1))
  )
)
2025-10-23 07:22:32,013 INFO: Loading OAPT model from /Users/ceabyfernandez/bachelorsthesis/OAPT/oapt/weights/OAPT_Pfreeze_gray_non_aligned2.pth, with param key: [params_ema].
2025-10-23 07:22:32,067 INFO: Model [OAPT_ModelB] is created.
2025-10-23 07:22:32,067 INFO: Testing DIV2K_gray...
2025-10-23 08:08:02,663 INFO: Validation DIV2K_gray
…
